matrix_factorization.pth (torch, 801062 bytes, 2 tensors)

user_factors.weight f4 [6040, 20]
000000 d4 25 9b 3e 3e d2 ba 3f fe 11 9f 3d 57 d2 6b bf
       0.30302298 1.4595411 0.077671036 -0.9211783
000010 e0 6b 88 3e d3 c8 85 be db e4 de 3f 41 95 0c c0
       0.26644802 -0.2612978 1.7413591 -2.1966097
000020 ed 06 c7 3e 60 f7 4d 3f bf f1 07 bf 7a a5 28 bf
       0.3887247 0.8045559 -0.5310325 -0.658775
000030 dd 38 4e be 6e ac dc 3e 24 e1 4e bf 98 8e 98 be
       -0.20138879 0.43100303 -0.8081229 -0.2979629
000040 94 5a 16 bd 86 68 dc 3e 4b 3b 13 3f c1 8e 49 be
       -0.036707476 0.43048495 0.5751235 -0.19683363
000050 4b ef d9 3e 92 fa 2a 3f 94 d6 25 bf 2a df 49 be
       0.4256538 0.6678859 -0.64780545 -0.19714037
000060 9a 6e 11 be 26 29 56 3e 78 c1 8f bd 9c 4b 84 bd
       -0.14202347 0.20914134 -0.07019323 -0.06459734
000070 13 87 80 3f f7 29 64 3e b8 20 59 bf ad 61 04 bf
       1.0041221 0.22281633 -0.8481555 -0.5171154
000080 cc 27 78 3f 55 3d af bd fe 86 34 bf 76 54 95 3f
       0.96935725 -0.0855662 -0.7051848 1.16664
000090 dd b0 e9 3d 89 9d 96 be a3 bb ac bf 8d bc 6f be
       0.11410687 -0.29417065 -1.3494762 -0.2341177
0000a0 50 4d 1a 3d 93 cd dc 3e 71 ef 96 bf 16 60 3b c0
       0.037671387 0.4312559 -1.1791822 -2.9277396
0000b0 e2 eb ad be 92 43 85 3f ad f6 e2 be bd e2 14 bf
       -0.33969027 1.0411246 -0.44328824 -0.58158475
0000c0 a8 e7 93 3f 88 39 3b 3f cf d1 43 bf 24 a4 b9 3d
       1.1555071 0.7313466 -0.7649202 0.090645105
0000d0 5a dd 6d bf 7a 5d 40 3e b1 bd b2 bf 0a 0a e3 bf
       -0.9291588 0.18785658 -1.3964139 -1.7737439
0000e0 85 a0 8a bf 98 9a 00 3f e0 e6 4e bf 3b 7c db bd
       -1.0830237 0.5023589 -0.8082104 -0.107170545
0000f0 95 83 d1 3f 40 a3 ae 3f 8a 49 5d bf e8 a0 26 bf
       1.6368281 1.364357 -0.86440337 -0.65089273
000100 f8 e7 dc 3e bc 5a 05 3f a2 11 8d bf af 60 d8 bf
       0.43145728 0.52091575 -1.1021006 -1.6904505
000110 4c 34 3e 3e d4 e0 5a 3f ce 06 ed bf 63 43 1a be
       0.18574637 0.8549931 -1.8517702 -0.15064768
000120 37 71 c8 bd 4f 26 2e be 65 53 7c 3f 58 47 82 3f
       -0.09787219 -0.17006801 0.9856475 1.0178022
000130 c4 46 07 bf d7 c6 b8 3e 73 91 73 bf 86 16 c2 bf
       -0.52842355 0.36089203 -0.9514381 -1.5163124
000140 01 a5 bf 3e 05 f4 5f 3f 0e 0b 80 3f 6a 74 47 be
       0.37430575 0.8748172 1.0003374 -0.19478002
000150 23 6a 96 be df f5 4f bf c0 1e 0a 3f 2e 3d a1 be
       -0.2937785 -0.81234545 0.5395317 -0.3149199
000160 6b 72 99 be 84 2e 0b be 1d bb 02 3e f4 28 a8 bd
       -0.29970106 -0.13591963 0.1276669 -0.08210936
000170 e8 c8 94 3f 1b ec f5 3e ba 09 8d bd b5 99 27 bf
       1.1623812 0.48031697 -0.06886621 -0.65468913
000180 74 f4 09 3f 3d 2d 95 3f 4f 33 9f bf c4 2e d6 bf
       0.5388863 1.1654431 -1.2437533 -1.6733022
000190 86 32 b4 3f 66 15 e9 3e 83 8a 76 bf ae 67 3d bf
       1.4077919 0.45524138 -0.963051 -0.7398633
0001a0 dc bc 2f be 22 db 5d be bd c0 f2 3e dd e7 b6 bf
       -0.17161888 -0.21665624 0.47412673 -1.4289509
0001b0 e6 fc cb 3f e0 87 84 3e ed bf 56 bd 88 4a d1 be
       1.5936553 0.25884914 -0.05242913 -0.40877175
0001c0 2f dd d9 3e c1 96 ec bf 05 b2 04 be 3f 6d 03 bf
       0.42551562 -1.8483506 -0.12958534 -0.5133857
0001d0 63 da 77 bf ad 33 09 bf 0e 76 df bf 78 73 84 3e
       -0.96817607 -0.53594476 -1.7457902 0.25869346
0001e0 86 67 dd 3d 12 83 20 40 6d 6b 0e 3f d4 a4 76 bf
       0.10810761 2.508 0.5563267 -0.9634526
0001f0 f9 c9 e4 be c9 85 a3 bf a1 a8 3f 3f 79 56 2f bf
       -0.44685343 -1.2775203 0.7486668 -0.6849132
000200 6e 77 52 bf b8 d4 5e 3f 9a 63 a9 bf a2 03 7f 3f
       -0.82213485 0.87043333 -1.3233521 0.9961492
000210 41 cb 9f 3f 2e 20 94 3f d2 80 65 bf 39 e5 24 bf
       1.2483903 1.157232 -0.8964969 -0.64412266
000220 18 1a fa bb 73 e2 95 bf f5 96 95 bf 59 d0 25 3f
       -0.007632505 -1.1709732 -1.1686693 0.6477104
000230 62 36 34 3f 9b 8d b2 3f 5e 7d f8 3e 19 27 a0 be
       0.7039548 1.3949465 0.48533148 -0.3127983
000240 66 d4 84 3f 95 95 89 3e 20 a8 06 bf 34 5b ba be
       1.0377319 0.26871935 -0.5260029 -0.36397707
000250 3b 9b 24 3f 55 e6 32 3e b7 ff 4d bf e5 b8 e1 3d
       0.6429936 0.17470677 -0.80468315 0.11021594
000260 32 98 d4 3e 06 bd ab bc 69 db 11 bf 87 34 80 3f
       0.41522366 -0.020964157 -0.5697542 1.001603
000270 77 0b 8e 3e 25 41 6e 3e ef a2 53 bf 98 b4 a6 bf
       0.27743122 0.23267038 -0.8267049 -1.3023863
000280 c6 cf 1f be 72 62 2a be de 3b e8 be 48 f1 d1 bf
       -0.15606603 -0.16639116 -0.45358175 -1.6401758
000290 8f 5e 60 3f 3d 91 80 bd e5 eb b5 3c cd 07 30 3e
       0.87644285 -0.06277702 0.02220721 0.17190476
0002a0 5e 72 b5 3e b3 97 5f bf 88 5b 2a bf 9e 2d 47 be
       0.35438818 -0.8734085 -0.66545916 -0.19450995
0002b0 31 b4 89 3e 72 a7 98 be 92 db c0 bf 81 05 8f 3e
       0.26895288 -0.2981525 -1.5067008 0.27933887
0002c0 42 69 10 3d f0 04 b6 3e b9 dc ac bf 1c 8a 98 3e
       0.03525663 0.35550642 -1.3504859 0.2979287
0002d0 4d 91 ad 3f 48 b1 1a 3f ec 04 dd be 9a 07 9c bf
       1.3559967 0.6042676 -0.43167818 -1.218982
0002e0 89 d2 e5 3d 1a 57 84 be 12 a6 51 3f c4 da 34 3e
       0.11221797 -0.25847703 0.8189403 0.17661577
0002f0 e3 cf af 3e 65 11 0c be 23 80 20 bd ca eb 3f be
       0.34338292 -0.1367851 -0.0391847 -0.1874229
000300 37 26 86 be 99 cd 4e bf 8d f7 98 bf 21 65 3a 3e
       -0.2620103 -0.8078247 -1.1950547 0.1820264
000310 01 4b ec be d4 ce 48 3c a4 2f 1f bf bb c2 3d be
       -0.46150973 0.012256343 -0.6218207 -0.18531315
000320 07 a2 84 3f 91 63 92 bc 3f ba 99 be 52 3b 18 c0
       1.0361947 -0.017869743 -0.30024907 -2.3786206
000330 56 4b f4 be d6 9a ff 3e ea 38 b6 3e 26 10 de 38
       -0.47713727 0.49922818 0.35590297 0.00010588793
000340 29 b3 a9 bf b2 6c b2 3c d3 49 3d bf 33 56 96 be
       -1.32578 0.021780346 -0.7394077 -0.2936264
000350 d1 ea af 3f 2a 37 11 bf 9f f9 88 be 29 89 b3 3d
       1.3743535 -0.567248 -0.26752946 0.087663956
000360 39 51 96 bd fa 6c 1d 3f 55 87 82 be 8d 42 31 3f
       -0.07339711 0.6149441 -0.25493875 0.69242173
000370 91 aa cb 3f 08 03 4f 3f 49 83 07 3f 71 af ee be
       1.5911428 0.80864 0.529347 -0.46618226
000380 e0 47 7b 3f 60 70 89 3f 20 f0 05 40 76 35 15 bf
       0.9815655 1.0737419 2.092781 -0.582847
000390 89 a0 12 3f d5 f2 80 3e 3b c6 b1 3b da df 9e 3e
       0.5727621 0.25185266 0.0054252422 0.3103016
0003a0 06 02 8a 3c 33 f4 87 3f 4d 31 7c bf d2 20 8f bf
       0.016846668 1.0621399 -0.9851273 -1.1181891
0003b0 a1 9a 9a be 47 f6 9e 3e d4 7d a8 3d a4 14 0b 3c
       -0.30196097 0.3104727 0.08227125 0.008488808
0003c0 52 ef a8 3e 12 9b 30 3f 03 da 16 bf 19 28 b4 be
       0.32995087 0.6898662 -0.5892641 -0.35186842
0003d0 5b 01 27 3f 1a 87 48 be 1d a9 af bc 91 4e a7 3e
       0.65236443 -0.19582787 -0.021442944 0.3267713
0003e0 92 5a 99 3f 48 f2 7a 3e 13 16 4c bf 08 02 68 3c
       1.1980765 0.24506485 -0.7972118 0.014160641
0003f0 8a 3b 54 3f 3b 24 b8 3f 10 a7 66 bf 41 95 d6 3b
       0.8290335 1.4386057 -0.9009867 0.006548554

item_factors.weight f4 [3952, 20]
000000 02 09 83 3f a1 42 2e 3f c4 eb bc be b8 43 81 bf
       1.0237124 0.6807042 -0.36898625 -1.0098791
000010 7e b1 39 3e 46 8e 99 be 14 f3 e8 3e b0 24 74 be
       0.18134114 -0.2999136 0.45497954 -0.2384212
000020 15 f1 b6 3e a3 7e 5e bc f3 0c b2 bd e2 e0 67 be
       0.35730806 -0.013579997 -0.08693876 -0.2264438
000030 d5 88 01 3f cc ae e6 3e 0b ae 52 bf db 08 ab 3e
       0.50599414 0.45055234 -0.8229682 0.33405194
000040 53 f5 43 3e bb 92 2f bd 33 bc e3 be 5d df 1b bf
       0.19136553 -0.042864542 -0.44479522 -0.608877
000050 03 4a 3f 3f d9 0c 35 3f 9a 35 3b be 50 25 34 bf
       0.7472231 0.7072273 -0.18282166 -0.70369434
000060 6e b3 e6 3e b0 04 0f bf fc f4 1e 3f 6e ca 9c 3d
       0.4505877 -0.5586653 0.62092566 0.07655798
000070 6b d0 08 3f 55 9f 9a 3e d7 c2 7a 3d b2 2d 58 be
       0.5344302 0.30199686 0.06122097 -0.21111181
000080 06 39 92 3d 4e 02 ea ba 5c 35 32 bf 4a 8d a7 3e
       0.071397826 -0.001785347 -0.6961267 0.32724983
000090 fd 03 bf bd e9 4c e8 bc 19 be 9b be 16 53 8f be
       -0.093269326 -0.028356986 -0.3041847 -0.27993077
0000a0 99 fb 2e 3f 9d 14 23 3f b6 74 82 bb a6 4b 3b bf
       0.6835266 0.6370333 -0.003981198 -0.73162305
0000b0 73 ef 56 be 23 19 d2 be 82 a6 e4 3e 5f eb 93 3e
       -0.2098978 -0.41034803 0.44658285 0.2889051
0000c0 5f 17 fe 3d d2 09 6e 3e 8c 17 b6 bc 23 1a b1 be
       0.124068014 0.23245934 -0.022228025 -0.34590253
0000d0 3f 24 22 3f 80 9e dd 3d fd 11 16 bf 4a fc bf 3e
       0.6333656 0.10821247 -0.586212 0.3749717
0000e0 bf 18 18 3e 1c 6b c0 be d2 a1 bf be 79 89 a9 be
       0.1485319 -0.37581718 -0.37428147 -0.33112696
0000f0 b6 5f f5 3e e1 20 19 3f cf 6c 87 bf 34 12 28 bf
       0.47924584 0.59815794 -1.0580081 -0.65652776
000100 17 b8 41 bf 8c 19 3c bf a8 41 4b 3f 12 10 86 bc
       -0.75671524 -0.7347648 0.7939706 -0.016365085
000110 81 33 df 3e 15 62 9d 3d 43 5e ed 3e ef 4c 8b be
       0.43593982 0.07684723 0.46360978 -0.27207133
000120 77 31 92 be 46 ec f6 ba 9b 97 1e bf 6c ba 7e 3e
       -0.28553364 -0.0018838726 -0.6195008 0.24875802
000130 55 d1 b3 bd 05 a9 bd 3e 7a 3d ee 3d b2 72 9d be
       -0.08780161 0.37043014 0.116328195 -0.30751568
000140 5d 69 7a 3f 45 e6 91 3e 17 27 84 be 8a de 51 bf
       0.9781702 0.28495994 -0.25811073 -0.8198019
000150 3f c7 3f 3d b9 5e 22 bf a2 c7 1d 3f 1b 63 29 3e
       0.046820875 -0.63425785 0.6163274 0.16541712
000160 78 d7 e3 3e d4 b6 77 bd fc 69 f6 3b 5a f2 82 3e
       0.44500327 -0.060477093 0.0075199585 0.25575525
000170 7f 97 72 be 44 67 1f 3d 35 b4 26 bf b5 97 d8 3e
       -0.23690604 0.03891684 -0.65118724 0.42303243
000180 3a 57 ad 3c fb f5 8d be 5b 17 90 be 49 3a fd bc
       0.021159757 -0.2772673 -0.2814282 -0.030911582
000190 cc 37 80 3f 47 3a 39 3f 6e 60 b6 be 2f 30 78 bf
       1.0017028 0.7235455 -0.35620445 -0.9694852
0001a0 63 f6 be 3e 24 96 b7 bd 8b 42 8f 3e 9c e2 1d be
       0.37297353 -0.08964184 0.27980456 -0.15418476
0001b0 59 a2 9d 3e 6a be 08 be 77 67 8e be 30 7a c8 be
       0.30787924 -0.13353887 -0.27813312 -0.39155722
0001c0 46 fb 8f 3e cc 56 32 3f 1e 91 5f bf 2b d2 bc 3e
       0.28121394 0.6966369 -0.87330806 0.36879095
0001d0 cb 08 68 3e 2a aa 02 3e e4 4b d6 be 73 9a d0 be
       0.22659604 0.12760225 -0.41854775 -0.40742835
0001e0 2d a0 28 3f 24 fe 3e 3f 74 44 d8 be b7 70 90 bf
       0.6586941 0.7460654 -0.42239726 -1.1284398
0001f0 4f 9d 6a 3e 41 29 90 be 5b b0 a5 3e b7 56 b7 3c
       0.22911571 -0.28156474 0.3236111 0.022380216
000200 ae a1 f8 3e d5 32 70 3e b3 26 64 bd 73 a0 e4 3e
       0.48560852 0.23456891 -0.05570097 0.44653663
000210 64 ff 89 bd 5c e3 5a 3e 4f 76 c9 be d4 b3 fa 3e
       -0.06738165 0.21375793 -0.39348075 0.48965323
000220 aa 62 2a be 4c 21 21 3e 0a 44 99 be 8c 21 fd be
       -0.166392 0.15735358 -0.29934722 -0.49439657
000230 42 4b 9b 3f 7e 47 10 3f 0b bd 8f bf 92 75 e0 be
       1.2132342 0.5635909 -1.1229566 -0.438397
000240 b9 44 ce 3c 76 78 84 3f d8 5d fc be 94 a5 de be
       0.025179254 1.0349262 -0.49290347 -0.434857
000250 0b 78 35 be 43 d7 a5 bd 70 78 80 be a5 27 15 bf
       -0.17721574 -0.080976985 -0.25091887 -0.5826362
000260 44 18 02 3f 55 6a fc 3d 1b 1e 96 bf 9d f7 3b 3f
       0.50818276 0.12324969 -1.1727937 0.734247
000270 a9 cc ca be e8 22 81 3e c4 a5 f0 bd 62 81 42 bf
       -0.39609268 0.25221944 -0.11750367 -0.7597867
000280 5f 4a 4f 3f d0 4d 51 3f 82 74 0d 3f 9c de f8 be
       0.80972856 0.8175936 0.552559 -0.48607337
000290 16 b0 fb 3c 0d 04 5f 3f ce f2 e0 bd 9b c3 0a 3f
       0.030723613 0.87115556 -0.10983811 0.5420472
0002a0 7c e6 2d 3f a3 fd 81 3e 97 88 93 be 1a 40 51 bf
       0.67929816 0.25388822 -0.28815147 -0.81738436
0002b0 c8 52 50 3e 77 82 52 be 29 03 b1 be 3c 6f 83 3e
       0.20344079 -0.20557581 -0.34572724 0.25670803
0002c0 5b 80 47 3f cd 0b c8 bf da 9c 19 bf 20 e0 76 bf
       0.7793023 -1.5628601 -0.6000496 -0.9643574
0002d0 36 39 6b 3f 2f 10 04 3f e8 63 00 be 8b 9c 52 bf
       0.9188417 0.51587194 -0.12538111 -0.82270116
0002e0 8f ac 91 3e a4 0f 24 be ad 24 08 3f 28 a7 33 bd
       0.28451964 -0.16021591 0.5318096 -0.043860584
0002f0 9e 9f 13 3e 53 81 9a 3d 9e e4 11 be 19 b5 a4 be
       0.14416358 0.07544198 -0.14247367 -0.32169417
000300 1b bc 97 3e cb 44 32 3e 23 f8 35 bf 8b a1 09 3f
       0.296357 0.17409055 -0.7108175 0.5376212
000310 ce e9 81 3d e7 96 54 be f6 4e 17 bf f9 3d d6 be
       0.06343423 -0.2076069 -0.5910486 -0.41844156
000320 8b 26 65 3f 87 dd 1e 3f e0 9a fa be 7b 97 43 bf
       0.89511937 0.62056774 -0.48946285 -0.76403016
000330 24 1e a8 3e 9b 5b cd be 00 17 2a 3f 05 1c 13 bd
       0.32835495 -0.40108952 0.66441345 -0.035915393
000340 be ae b3 3e d6 60 92 3d de 9b ee bd 30 c5 b0 be
       0.35094255 0.07147376 -0.11650823 -0.34525442
000350 75 b5 14 3e 7a e8 7d 3e b1 9b 28 bf 33 13 11 3f
       0.14522345 0.24795714 -0.65862566 0.5666992
000360 2b a4 85 3b 27 17 60 be 64 56 0b bf fd c0 89 be
       0.0040784082 -0.21883832 -0.54428697 -0.2690505
000370 a8 0c 6c 3e cf 30 44 3f 1a eb 24 3e 1e 49 93 bf
       0.23051703 0.76636976 0.16105309 -1.1506689
000380 4d 93 1f bd 37 33 e4 be 93 a5 ca 3e bb d3 09 bf
       -0.038958836 -0.44570324 0.39579448 -0.538387
000390 a2 3b 31 3c 1f a3 a8 bd b2 2e d7 3a 0a c3 b7 bf
       0.01081744 -0.08234238 0.0016417115 -1.4356396
0003a0 1f 30 2d 3c 96 bd 7c bf f8 d3 0a 3d 7d e1 1a 3f
       0.010570555 -0.98726785 0.033893555 0.6050032
0003b0 4f 56 8a 3e 86 0e f1 3c 3b c1 c0 3e 99 b7 44 3e
       0.27018973 0.02942587 0.37647423 0.19210662
0003c0 64 7b 86 3f ad 92 f2 3e 14 b8 86 be e3 2f 73 3e
       1.0506406 0.4737753 -0.26312315 0.23748736
0003d0 08 6d be be d2 a5 6e bd 0f 1b 5e 3f ca e9 4f bf
       -0.3719256 -0.058263607 0.8676004 -0.8121611
0003e0 ca b9 2a 3f 15 ff 14 3f ad f6 b6 bd 24 fc 73 3d
       0.6668974 0.58201724 -0.089337684 0.059566632
0003f0 aa 8d 47 3e a6 b4 5d 3f f6 b6 60 bf 5a 78 4a 3f
       0.19487634 0.8660377 -0.87779176 0.7908989
